hw7/LeNet.pkl (torch, 181084 bytes, 10 tensors)

conv1.0.weight f4 [6, 1, 5, 5]
00000000: c848 603e 5371 ecbd b245 1b3e 5424 d53d
00000010: c0e3 293e 1142 01be 0414 0d3e 083e 2d3e
00000020: 2488 afbc 73fa 363e 3863 443d c7d8 91bd
00000030: 43fe bebd e107 323e 1e1d 08be 6461 1a3e
00000040: e2e8 21be f4f5 32be becd 9bbc 9220 33bd
00000050: 754a a8bc 19eb 163e a6b7 06be 9e14 e4bd
00000060: 3d53 33be 049a 493d 6668 ef3d cd8f d7bc
00000070: c153 3ebe b036 11be 639a 193e c11e 23be
00000080: cb81 f13d 10c3 26ba 453f 0bbe fad4 0ebd
00000090: 6037 b63d dc76 953d 60a1 91bc ce97 66bd
000000a0: f9eb 2e3e 4343 9fbd 8b1d 8c3d 337b 0e3e
000000b0: 437f eb3c 0185 61bd 3fac 08be 0bc5 6b3d
000000c0: be0f 553d 3686 143e aa86 e6bd b0c1 20be
000000d0: c228 453d f1d2 1f3d 2a5d 01bc 02cd 0cbb
000000e0: 7c55 143e ba45 b23d d91e 963d 699c b4bd
000000f0: 5813 b6bd 7a01 19be bf5b 9f3d f2e2 293c
00000100: ea4b 1dbd 84ec babd 990b 1ebe e511 11be
00000110: 3055 18be 01db 583d 0ff5 dcbd f2e4 08be
00000120: 54d2 c23d 52b7 d4bd b0c8 acbd 661c efbb
00000130: a151 233b ad09 0dbe 095d 2cbd 7800 c5bd
00000140: 7f35 13bd dd38 30be 0e2e 823d ef5f 123e
00000150: 23ce e03d 5628 663d 7bfd fd3d 7da3 dabd
00000160: 392b d3bc 0843 e5bd c749 d73d 8157 a2bd
00000170: 2a2e eb3d 9253 11be 44a6 01bc b801 803d
00000180: 5e9b f93b 73e3 4d3d b552 9fbd 83bf 16bd
00000190: 2941 c83c 3525 21be 48a7 61b9 8f71 bfbc
000001a0: 1173 1cbb 061c 463d ca52 2f3e 7d29 afbc
000001b0: 2bae 2cbd 9f6a 883d 46ed 96bd 5b96 10be
000001c0: 3cd1 243e 7826 0abe 9530 c83d 9d00 0a3d
000001d0: 63cb 17be 89df 82bc 318c a83d 6914 4a3d
000001e0: cb5d b3bc de40 30be 81cd 003e 0065 eb3c
000001f0: 77b9 edbd 0b58 01bd fa47 b2bd 319e 993d
00000200: 55e1 21bd 48e1 153d 72c4 903d 34df ae3d
00000210: 6b96 f2bd a4de da3d 7022 063d de91 13be
00000220: 2cd2 4f3d dce4 e33d e578 3e3d fa83 30be
00000230: 134c a3bd 2937 9abd a6e0 843b 6867 0f3e
00000240: f037 23bc 5695 d63d 5cf6 153e 2c8a 15be
00000250: 1b55 9d3d 4842 f6bd
0.21902764 -0.115450524 0.15163305 0.1040732 0.16590786 -0.12622859 0.13777167 0.16918194
-0.021427222 0.17868976 0.047946185 -0.07121425 -0.0932584 0.17385818 -0.13292357 0.15076214
-0.15811494 -0.17476636 -0.019019004 -0.043732233 -0.020543316 0.1473812 -0.13155994 -0.11136745
-0.17512222 0.049219146 0.11689834 -0.026313687 -0.18586637 -0.14181018 0.150003 -0.159297
0.11792334 -0.0006361464 -0.13598354 -0.03487108 0.08897281 0.07298061 -0.017777145 -0.056297116
0.17082204 -0.07776501 0.068415724 0.13914184 0.028747207 -0.055058483 -0.13346957 0.05756096
0.052016966 0.14504322 -0.11256154 -0.15698886 0.048134573 0.03901953 -0.007895747 -0.00214845
0.14485735 0.087047055 0.073301025 -0.08818895 -0.08890408 -0.1494197 0.07781171 0.010369049
-0.038402475 -0.09127143 -0.15434112 -0.14166982 -0.14876246 0.052943233 -0.10788929 -0.13368586
0.09512773 -0.10386528 -0.084367156 -0.0072970865 0.002492048 -0.13773222 -0.042080913 -0.0961923
-0.03593969 -0.17209192 0.063564405 0.14294408 0.109768175 0.05619081 0.12401863 -0.10675714
-0.025777446 -0.11194426 0.10512119 -0.07926846 0.114834145 -0.14192036 -0.007913176 0.06250328
0.007617398 0.05026574 -0.07779447 -0.036803734 0.024445133 -0.1573685 -0.00021519989 -0.023369579
-0.0023872296 0.04836657 0.17121425 -0.021382088 -0.042158287 0.06660961 -0.07369475 -0.14119856
0.16095442 -0.13491237 0.09774891 0.03369199 -0.1482368 -0.01597573 0.082298644 0.04933587
-0.02189531 -0.17212245 0.12578394 0.028734684 -0.1160764 -0.031578105 -0.08705135 0.07500876
-0.039521534 0.036591798 0.07068719 0.08538666 -0.11845096 0.106869966 0.032747686 -0.14411113
0.050737545 0.11127636 0.046502013 -0.17237845 -0.079734944 -0.07530052 0.0040551005 0.1400429
-0.009962067 0.10477702 0.1464476 -0.1460349 0.07682248 -0.12024361

conv1.0.bias f4 [6]
00000000: 98da 21be 6592 95bd 5fed 2dbe 3989 21be
00000010: 4021 3cbd f222 2cbe
-0.15806043 -0.07303313 -0.16985081 -0.15775003 -0.045930147 -0.16810206

conv2.0.weight f4 [16, 6, 5, 5]
00000000: 4a44 903d 5821 2dbd f1ca dfbc 49cf babc
00000010: d107 4ebc 770e c0bc a5bd 9c3d fe84 c93b
00000020: 629c 1abd d2fb cbbc 3676 15bd 2610 913c
00000030: ec48 b33d a269 0cbd 73eb bf3b 2316 393c
00000040: 5963 59bd 792f a83c 34ca 883b d583 203d
00000050: 4396 1f3d 2e8a 8dbd 01c9 543d a8b1 003d
00000060: 24b8 c43c be6c 24bc 8ebd 01bd b79a 08bc
00000070: 4b6c 0c3d 896f 663c e28c 60bd 9888 34bd
00000080: 7bad 94bd d6ad 743d dd53 2c3d 2aa9 693d
00000090: 275d 6e3d 5dc8 95bd df18 863d 7eb2 d53c
000000a0: 3d34 ddbc 9ea3 753a 4c7a 423c b9f8 28bc
000000b0: 076e 90bd 435e 12bd b492 7bbd 27ab 25bc
000000c0: 0f81 453d caa2 d03c 3d4d 3bbd 8ea2 14bd
000000d0: fb78 39bd e361 213c 25aa 803d e2b7 cdbc
000000e0: e8d7 393d 52be 30bd 1ad3 08bc 9207 af3d
000000f0: 5b3e 60bd 2e6e 7ebd 74f4 abbd db82 2c39
00000100: c5db 9c3d 7a2f 2b3d 3a2e c03b 3896 9b3d
00000110: b7a9 0a3d 942c 823d 7584 883d 37e6 b33c
00000120: 613f 853d b1da f8bc 67d3 943d f96e a83d
00000130: fbac 073d cdc5 913d 21c6 eebc ccca c8bc
00000140: 5b84 15bd 66c4 1fbd 66e9 89bd 76e9 7abd
00000150: 8d05 04bd 2f69 99bd e063 b03c f2e2 94bc
00000160: 0a33 f0bc 8414 82bb d410 b9bc f818 8f3d
00000170: 76c3 69bd 83a4 70bc 272f 033c 2f6f 1b3d
00000180: 8d95 213d 89a5 163d 63e9 063d 6e0d 31bb
00000190: 62f4 5abd af17 68ba 5462 893d 6b4f 7a3c
000001a0: 3af6 6cbb 3a01 90bc efc1 3bbd a36e 893d
000001b0: 73a0 9bbc a0ea 78bd 0cd9 c2bc 3de3 89bd
000001c0: 38e3 f9ba 6722 52bd 65ff 2bbd fe51 33bd
000001d0: ea01 07bc d7c5 7c3d 3bab 52bd 6d08 ab3d
000001e0: f296 1fbd a6d8 79bb 209c 34bd 593f 18bd
000001f0: 4da1 3f3c 34d9 a53c 67a9 173d 8a6b e23c
00000200: a110 3ebd 906e 673d ca07 423d 7fce 883d
00000210: 5246 883c 11d6 0d3d 1381 103d 5edc cfbb
00000220: 7267 a0bc 7eec 0fbd ca8d a83b 3545 7e3c
00000230: 4ef5 babc 2df0 8c3d 3401 9dbd a25c 543d
00000240: f51a d2bc e43c 94bd b718 a2bc 84c7 0bbd
00000250: 640e a5bc 10db 253d e339 87bd d270 08bd
00000260: d3c3 88bd 08df a03d be76 f2bb 0450 533c
00000270: 2a9c 143d 0146 843d 7c13 0f3c c437 ae3c
00000280: cc9e 8c3d 7c94 d9bb 987d 0f3d 48b8 82bd
00000290: ee32 abbd 52f0 5dbd a75c 08bd 868e 0fbd
000002a0: 43ef 903d 238e 383d 8f48 14bd 4a94 993c
000002b0: a09c d33c 63ae 48bd 776a ebbc 74eb b6bb
000002c0: ef65 bb3c 96ae 0dbd 222d 70bd 5743 3cbd
000002d0: 2304 88bd 75f7 703c a110 f13c e364 77bc
000002e0: 5a83 45bc 497c d6bc 251c 42bd 8b59 2ebd
000002f0: fc7b f5bc ef16 3fbd dcad 9d3d 3c6c 823d
00000300: 43ba b33c deb9 0bbd f873 73bd 589e d13b
00000310: 50c4 1d3c f570 78bd 1ee4 11bd b6e4 433d
00000320: 5a85 18bd d22a a9bc c991 02bd 2aa5 713d
00000330: 212e cabc 7cc3 e839 c674 49bd 8103 b23d
00000340: 6406 913c 4d90 3ebc 4d63 e43c ac90 80bc
00000350: ff2b 11bd 858a 76bd 7039 b8bb 0638 de3b
00000360: 1b94 8dbd 2440 9e3b a0ec 213d c08d 793d
00000370: 0708 3abc 81f6 6fbd 1850 40bd 20c9 f73c
00000380: f732 913d e923 52bd 9abc 54bd 3fc0 16bd
00000390: b6d3 2ebd e480 043d aaff ddbc dc93 1abd
000003a0: 7875 483d 21db 8bbd daf1 553b 5213 33bd
000003b0: ceed 0a3d 2700 903d 722c a73d 0885 9e3d
000003c0: 2467 38bd ab08 46bd 2998 77bd a2b9 a5bd
000003d0: ef78 7b3d 15a9 9fbd 11cc 80bd 4430 be3c
000003e0: 51f3 303d 03b4 41bc b5e9 7dbd b048 93b9
000003f0: 67d5 903d 25dc 023d fe5b 8f3b e548 aabb
0.07044275 -0.042268127 -0.02731845 -0.02280392 -0.012575106 -0.023444397 0.07653359 0.006149887
-0.037746795 -0.02490035 -0.036489688 0.017707895 0.08754143 -0.034280427 0.005856925 0.011296782
-0.05307326 0.02053045 0.004174495 0.039188225 0.03896166 -0.06911121 0.051949505 0.031419426
0.024013586 -0.010035692 -0.031674914 -0.008337668 0.034282964 0.014064678 -0.054821856 -0.04407558
-0.07259651 0.059736095 0.042072166 0.057046093 0.058194306 -0.07313607 0.065477125 0.026086088
-0.027002448 0.0009370389 0.011869978 -0.010313206 -0.07052236 -0.035734426 -0.061419204 -0.010111607
0.048218783 0.025468249 -0.045727957 -0.036287837 -0.04528139 0.009849998 0.062824525 -0.025112096
0.04537192 -0.043150254 -0.008351112 0.08546366 -0.054746967 -0.062116794 -0.08396235 0.00016451946
0.07659105 0.041793324 0.0058648856 0.07597011 0.03385326 0.06356159 0.06665889 0.02196036
0.06506229 -0.030377718 0.07266884 0.08224291 0.03312395 0.07117806 -0.02914721 -0.024510764
-0.036503177 -0.03900566 -0.0673397 -0.061257802 -0.032231856 -0.07490765 0.021532 -0.018174622
-0.029321212 -0.003969731 -0.022591032 0.06987184 -0.05707117 -0.01468766 0.008006847 0.03794783
0.039449263 0.03677896 0.03293742 -0.0027016061 -0.053455718 -0.0008853627 0.06708208 0.015277724
-0.0036157505 -0.01757871 -0.045839246 0.067105554 -0.018997407 -0.06077063 -0.023785137 -0.067327954
-0.0019064909 -0.05130234 -0.04199161 -0.043779366 -0.008240202 0.061712112 -0.05143283 0.083512165
-0.038962312 -0.0038123517 -0.044094205 -0.037169788 0.011696172 0.020245172 0.03702679 0.02763917
-0.046402577 0.056501925 0.04737071 0.06680011 0.016635094 0.034627978 0.035279345 -0.0063434085
-0.019580577 -0.035137646 0.0051438557 0.01551943 -0.022822049 0.068817474 -0.07666245 0.051846154
-0.02564762 -0.072381765 -0.019787176 -0.03412582 -0.020148464 0.040492117 -0.06602838 -0.03331072
-0.066779755 0.0785504 -0.007399409 0.012897495 0.036281742 0.06458665 0.008732673 0.021266825
0.068662256 -0.006640015 0.035031885 -0.06382805 -0.083593234 -0.054184265 -0.033291485 -0.03504803
0.070768856 0.045057427 -0.03620201 0.018747468 0.02583152 -0.048994433 -0.02873729 -0.0055822674
0.022875754 -0.034590326 -0.058636792 -0.045962658 -0.06641414 0.014707436 0.029426875 -0.015099737
-0.012055242 -0.02618231 -0.047390122 -0.042565864 -0.029966347 -0.04665273 0.07699177 0.063683
0.021939402 -0.034112804 -0.05943677 0.00639705 0.009629324 -0.0606546 -0.03561794 0.047825538
-0.03723655 -0.020650301 -0.031877313 0.058995403 -0.0246802 0.00044396135 -0.04918363 0.086920746
0.017703243 -0.011631084 0.027879382 -0.015693985 -0.03544235 -0.060190696 -0.0056220815 0.006781581
-0.069130145 0.0048294235 0.039532304 0.0609262 -0.011354453 -0.058584694 -0.046951383 0.030247271
0.07089799 -0.051303778 -0.051937677 -0.036804434 -0.042682372 0.032349482 -0.02709945 -0.037738666
0.048940152 -0.06828905 0.0032645375 -0.043719597 0.033918194 0.07031279 0.08162774 0.077402174
-0.045020238 -0.04834811 -0.060447846 -0.08092047 0.061394628 -0.07795922 -0.062889226 0.023216374
0.043200795 -0.011822703 -0.06199046 -0.0002809218 0.07071953 0.031948227 0.00437498 -0.005196678

conv2.0.bias f4 [16]
00000000: 36da 453d 3a34 833d 4a19 5cbc 2c88 323d
00000010: 7484 a4bd 1533 ea3c 5539 6dbc 587a 093d
00000020: d693 4d3d 30b4 0a3c 7197 3a3d 53a7 3abd
00000030: 8441 fbbc 37be 0c3d b130 bdbb 07f7 1e3c
0.048303805 0.06406446 -0.013433764 0.043586895 -0.08033076 0.028588811 -0.014479001 0.03356394
0.050189815 0.008465812 0.045554582 -0.04556973 -0.030670889 0.03436109 -0.0057736267 0.009702451

fc1.0.weight f4 [120, 256]
00000000: 173c e83c 0dad b0bb f296 03bd 4472 143b
00000010: 587d b2bb 2775 73bd 0a15 5dbd c023 573c
00000020: 51f3 2e3c 2ca3 c8bc 1630 43bd 1a03 d7bc
00000030: 9049 313d 5042 443d 9c74 18bd 427e 74bd
00000040: be44 4e3d 057a 6abd ca4b 55bd dbf4 723d
00000050: 5cd5 2ebc 577f 793d 6ade a6bc 111b f03b
00000060: 4abe 0a3d d559 cc3c 64eb 0dbd 0909 6a3d
00000070: b365 f7bc 125a 8b3c 33a6 bb3c caec 033d
00000080: 4866 743d c4a6 1fbd cee9 cd3b 179b 67bd
00000090: b864 0ebc a0e1 febc c914 793d 1169 44bc
000000a0: 1a7b a03c 5279 4bbd 98bd 603d 118c 193d
000000b0: 2b4d 1a3d 76b9 1e3d 4d95 743b f715 26bd
000000c0: 7c2b 58bd 81a8 09bd 45fe 0cbd 7190 09bb
000000d0: ca3b 2fbd 8576 e9bc 5203 fe3c fdd5 183d
000000e0: 3539 8b3c 3509 b0bc 72d3 6ebd e974 3b3d
000000f0: 8586 453d 9fd8 8b3c 53a7 9b3c e82f 61bd
00000100: bfb6 8a3c 2740 3f3b d376 84bd 58f6 1fbd
00000110: d1f8 8abc 12a2 edbb 11a6 34bd 6f5f 1fbd
00000120: 3455 61bc 534c f3bc 7337 f7bc eeb3 bebc
00000130: b9c3 453d 48ba fb3b d2dd 073d 020c 093c
00000140: 4171 6c3d 3e25 1d3d b1bf 0e3d 5ca2 52bd
00000150: 38e5 2e3d eaab 2b3d 25c1 8abc bb76 7ebd
00000160: 77ff 38bd 26e0 b4bc 8edc d9bc 5898 5abd
00000170: ec8d 153d f32f f33c 1301 4a3d 6f0d 063d
00000180: a457 113d c34c 3cbd 33b8 48bc b05e 0f3d
00000190: ac10 81bd 1e80 76bd 33fe 81bc 1f05 19bd
000001a0: 1c06 213c 0f8f 27bd 5d38 a93b 38e4 1d3d
000001b0: c637 423d d2ac 2dbd 8317 f63c 8ea3 d93c
000001c0: c75b 813c 884c 2fbd 9a46 763d 479f 3bbd
000001d0: 15ec e6bc bbf6 f5b9 1747 6c3c d381 b03c
000001e0: 5e6e 583d 8468 30bd 1f68 c6bc 971e 3e3d
000001f0: 4079 65bd 99ad 36bd d113 923c be87 f4ba
00000200: 5e19 323d 6174 debc 0c2b b7bc 9f54 8cbc
00000210: 341f 5dbc e00e 643c 7087 f3bb d771 c23c
00000220: 5643 003d def5 2bbd 75e0 653d 3f3c 383c
00000230: 4998 353d b72f 31bd 11e1 24bd 1839 6e3d
00000240: becb a13c d338 543d 1c6e aebc 7737 673c
00000250: 8621 423b f926 693c d238 84bc b16f 933c
00000260: 51bb 023c 1fd4 d23c ad00 5fbd 9742 fcbc
00000270: ac51 aabc adcd 753d e3e4 7fbc 44ae 8b3c
00000280: 2a30 053c f9fc c2bc f5ed 2c3d 7859 ac3c
00000290: 20ed 42bd 9daf bebc 37b1 96bc bb51 483c
000002a0: 513f 68bd 3939 503d 5e74 743c 0eac 51bd
000002b0: 610a 5a3d b37f cabc adb5 4f3d 34fb d8bc
000002c0: 3c02 dc3c 1d4c 3fbd d23d c93c 1fe6 70bd
000002d0: c8e0 393c e205 e03c 62c4 90bc 1918 113d
000002e0: 640f 613d f1a3 293d 3a12 01bd 56cd 273d
000002f0: 87f7 8d3b 59fa ce3c 1482 1dbc 71c1 d5bc
00000300: b374 363d 67ff 203d 3ae3 d23c 7f91 5bbd
00000310: 546a 96bc a504 05bd 5d2b f13c 680b e83a
00000320: 09e4 1cbc a785 5a3d c10c 1f3d 4dd5 d13c
00000330: 3615 7f3d d8d1 50bd 9f92 39bd ed4d 19bd
00000340: 2516 7b3d 239a 9dbc 7b1a de3c 17ca 303d
00000350: 9b8b 65bd b9c1 d33b 9922 413d 300c 723d
00000360: 143c 11bd bdc1 1dbc 510c f33b c9ca 2c3d
00000370: a769 433d 9692 38bb f283 1f3d 4424 51bd
00000380: ddea 873c 5702 39bc 1b27 2a3d fcc1 773d
00000390: b2f9 fdbc 13d5 6dbc aee3 e73c 1272 fcbc
000003a0: a1f7 f2bc edbd 2b3d 02a2 653d 0de6 91bb
000003b0: bc47 b7bb 6e7b 2f3d aa0b 60bd aaec 3d3d
000003c0: 95b0 83ba 6c85 103d 014a 0cbd 8cbe 9f3c
000003d0: 6ed7 973c 9343 733d 7001 16bd 5720 7bbd
000003e0: b512 653d a9af 5b3b 318d 413d 8216 033d
000003f0: 6712 6e3d 032c c7bc f936 bd3c 4fb0 193d
0.028348966 -0.005391723 -0.032126375 0.0022651115 -0.005447071 -0.059437897 -0.053975143 0.013131082
0.010678128 -0.024491869 -0.04765328 -0.026246596 0.043283045 0.047914803 -0.037220582 -0.05969072
0.050358526 -0.057245273 -0.05207423 0.059315544 -0.010670986 0.060912456 -0.020369727 0.0073274453
0.03387288 0.024945179 -0.034648314 0.057137523 -0.030199861 0.017010722 0.022906398 0.03220824
0.059667856 -0.0389774 0.006283975 -0.05654439 -0.008691005 -0.031113446 0.060810838 -0.01198794
0.01958995 -0.049676247 0.05486831 0.037487093 0.03767125 0.038751088 0.0037320436 -0.04054829
-0.052775845 -0.033607963 -0.034422178 -0.0020990635 -0.04278163 -0.028498897 0.031007443 0.03731345
0.016995052 -0.021488765 -0.05830712 0.04576579 0.04822399 0.017071066 0.019000685 -0.054977328
0.016932843 0.0029182525 -0.064679764 -0.03905329 -0.016964348 -0.0072519863 -0.044103686 -0.038909372
-0.013753224 -0.02969948 -0.030177807 -0.023279157 0.04828236 0.0076821186 0.03317053 0.008364679
0.057725195 0.038365595 0.03485078 -0.05142437 0.04269907 0.041911997 -0.016937802 -0.06212495
-0.045165505 -0.022079539 -0.026594426 -0.053367943 0.0365123 0.02968595 0.04931743 0.032727655
0.03548397 -0.045971643 -0.012250948 0.03500241 -0.06302008 -0.060180776 -0.015868282 -0.0373584
0.009828117 -0.040907916 0.0051641897 0.038547724 0.04741647 -0.042401142 0.030040508 0.026567247
0.015790833 -0.042797595 0.060125925 -0.045806196 -0.028188745 -0.0004691387 0.014421246 0.02154628
0.05283963 -0.043068424 -0.02421957 0.04641589 -0.056023836 -0.04459915 0.017831715 -0.0018656177
0.043481223 -0.027155103 -0.022359394 -0.017130194 -0.013496209 0.013919562 -0.007431917 0.023735924
0.031314217 -0.041982524 0.056122262 0.011244833 0.044334684 -0.043258395 -0.040253703 0.058159918
0.019750472 0.051812004 -0.021292739 0.014112345 0.0029622032 0.014230483 -0.016140375 0.017997595
0.00797923 0.025735913 -0.054444004 -0.030793471 -0.020790897 0.0600106 -0.015618536 0.01705087
0.008129159 -0.023802267 0.04221912 0.021038756 -0.04758942 -0.023277098 -0.01839505 0.012226517
-0.05670101 0.05083582 0.014920322 -0.051189475 0.053232554 -0.024719095 0.05071037 -0.02648697
0.026856534 -0.046703447 0.024565611 -0.05881321 0.011345096 0.027346555 -0.017671768 0.035423372
0.05494632 0.041416112 -0.031511523 0.040967308 0.004332486 0.02526586 -0.009613533 -0.026093217
0.044544887 0.03930607 0.025743116 -0.053605553 -0.018361248 -0.032475132 0.029439623 0.0017703595
-0.009575852 0.053350117 0.038830522 0.025614405 0.062276088 -0.050981373 -0.045305844 -0.03742783
0.061300416 -0.019238537 0.027112236 0.043161478 -0.05604134 0.0064623025 0.047152136 0.059093654
-0.035457686 -0.00962871 0.0074172397 0.04218558 0.04770818 -0.0028163544 0.038944192 -0.051059976
0.016591484 -0.011292062 0.0415412 0.060487732 -0.031002853 -0.014516133 0.028306808 -0.030816112
-0.029659094 0.041929174 0.056062706 -0.004452473 -0.005593268 0.04284232 -0.054698624 0.04636828
-0.0010047132 0.03528349 -0.034250263 0.01950004 0.018535342 0.059390616 -0.036622465 -0.06131014
0.055926044 0.003352145 0.04725379 0.032003887 0.05812302 -0.024312979 0.023097502 0.037521657

fc1.0.bias f4 [120]
00000000: db2b e53c c38a 9bbc fcd2 793d 2352 3e3d
00000010: 50fc 9bbc 54e0 653c d7b8 a4bc d08e c6bc
00000020: 5f4f de3c 48e1 353d b8bb e6bb f047 14bd
00000030: 177e 193d 7e8d 593d 81f7 cfbc d2f7 f0bc
00000040: 7669 79bd 5551 093d 506b d0bc 6d89 083d
00000050: 451b 4cbc cd4d 38bd 4984 cfbc a861 653d
00000060: f48b 4f3d 6cbc 08bd 0b9e 463d a7b0 38bd
00000070: e71e 073b ea5d 00bb 5fb9 a3bc f83a 7b3d
00000080: e9c3 5abd e503 dfbc 2a33 f23c 99bc ccbc
00000090: 98ce 4abc 446e 61bd 2c54 f03c 9121 dabc
000000a0: 3003 c9bc dc66 f1bc 1570 d23c c1cb c6b9
000000b0: 7313 57bd 726c 9e3c 25c4 47bc e0e3 f3bc
000000c0: 96c0 7e3d 6872 033d 72b3 673d f791 553d
000000d0: 0bdb b9bb 9144 19bb 8b9b b1bb 02d0 40bd
000000e0: 4632 7fbc 805f 3d3d 096a 23bc 7080 973c
000000f0: 4431 303d 6744 14bc 3e84 32bd 68cf be3b
00000100: e7d2 003d 386c 713c a91a 673d f38c 61bd
00000110: 46ed 29bd c05f 85bb 7571 5d3d 6ebd 6e3b
00000120: 4f58 533d fb72 3bbc 1578 3c3d 8075 4abd
00000130: 51f5 33bd 1855 f7ba 0dcf 4e3c 657a 4d3c
00000140: 548a a8bb daba f93c 3e29 263d b350 1f3d
00000150: 2a76 693d 9500 8e3b b6eb 4d3c 8876 29bd
00000160: bd5f c23b 8176 f73c 5068 39bd c43a 233d
00000170: ff40 00bd 9da5 24bd 014b 67bc e51e b1bc
00000180: 038e 6abc 449e 8a3c a46b 533c 1c31 7cbd
00000190: 1d28 fc3c 6062 b5bc 538e dcbc 22fe ddbb
000001a0: 8e8c 6c3d a837 44bc f856 1ebd 91a5 173d
000001b0: 2286 e8bb b3f8 71bc 7c92 6abd 9f06 963a
000001c0: 6408 a03a ee57 803b 65a5 193d e335 05bd
000001d0: 8619 47bd b278 46bc 38fd 15bc 3797 6fbd
0.027975013 -0.018987065 0.060992226 0.04646505 -0.01904121 0.014030535 -0.02010767 -0.02423802
0.027137456 0.044404298 -0.007041421 -0.036201417 0.037473764 0.053113453 -0.025386574 -0.029415045
-0.06089159 0.03352483 -0.025441796 0.033334184 -0.012457673 -0.04499607 -0.025331633 0.056001335
0.05067058 -0.033382818 0.048490565 -0.045090344 0.0020617784 -0.0019587227 -0.019985853 0.061335534
-0.05340949 -0.027223537 0.029565413 -0.024992274 -0.012378357 -0.055036798 0.029337011 -0.026627334
-0.024537653 -0.029467992 0.02568821 -0.0003791731 -0.052508783 0.01933882 -0.012192761 -0.029771745
0.062195383 0.03209153 0.056567617 0.052141156 -0.005671864 -0.0023386816 -0.0054201535 -0.04707337
-0.015575951 0.046233654 -0.009974011 0.018493861 0.043015733 -0.0090495115 -0.043583147 0.0058230646
0.031451132 0.014735274 0.05642191 -0.05506606 -0.041486047 -0.004070252 0.05406328 0.0036428827
0.05159789 -0.011440988 0.046012957 -0.049428463 -0.043935124 -0.0018869964 0.012622607 0.012541388
-0.005143443 0.030484606 0.040566675 0.03889532 0.056997456 0.0043335655 0.012568405 -0.041372806
0.005931823 0.030207874 -0.045265496 0.039850965 -0.031311985 -0.040197004 -0.014117003 -0.021621177
-0.014316085 0.01692117 0.0129040815 -0.06157027 0.030780846 -0.022141635 -0.026923334 -0.0067746798
0.05775123 -0.01197616 -0.03865716 0.03702313 -0.007096068 -0.014768767 -0.057268605 0.0011446065
0.0012209532 0.003916732 0.03751125 -0.032522094 -0.048608325 -0.012113737 -0.00915461 -0.05849382

fc2.0.weight f4 [84, 120]
00000000: 6990 62bd b5a5 b0bc 1302 b8bd 2fe7 b43d
00000010: 0857 383d e4c1 3abd 8c7a 99bb 4b34 1e3d
00000020: 1a37 ae3d 9556 49bc 99fd 1d3d fc44 08bd
00000030: 1a4d 4fbd 2dfb 71bd d6a5 5cbc 2a76 0cbb
00000040: 4ea3 a8bd b743 843d 4e21 aabd d210 2f3d
00000050: 3a85 31bc bce4 243d 3e3b a73a 6b4d c63c
00000060: 2bd3 513d 7cd7 90bd 5bf5 393d 1e64 67bd
00000070: f3fe 4cbd 29dd b33d 718c 3c3d 07b1 1f3d
00000080: da71 343d ad96 843d 3ff4 cd3c ee7b df3b
00000090: 4019 483d 98ce f03c fecb 8fbc 8ec8 833d
000000a0: 46d0 ab3d 3dd6 173d 2181 823d c95e dabc
000000b0: d97e 80bd 610a 623d 6306 85bd 8b63 6cbd
000000c0: 1b03 a3bd 0c37 283d dc78 c13d 97d8 4f3c
000000d0: bc27 06bd dae7 d63c 1676 f7bc 58eb 81bd
000000e0: 7f79 15bd 99c7 7ebc a6ab 723d 7eed b83c
000000f0: 8e30 19bd e740 a83d 1ac7 33bd 2794 33bd
00000100: 2c80 afbd e3ff b33d df4d 78bd ec2e 39bd
00000110: df05 273d 1f12 a3bd c352 5b3a 7bb2 b03d
00000120: 6278 9c3d 8a79 7b3d 9619 603d f04b 8cbd
00000130: c9fa 9e3d 2f7f d83c c4e8 45bc 0326 583c
00000140: 25d2 7c3d 8db9 06bd 7778 c5bb b692 983c
00000150: efd7 2fbd 334d 2a3c 4143 80bb e919 c2bc
00000160: fbf7 593d 894c 42bd daae dabc b798 a8bc
00000170: eabe 97bd 5c01 bd3c 7be4 72bd 8c1f a93d
00000180: 8390 983c 0baa 713d 8ea8 afbd e7e3 383d
00000190: f75d e33c 526f ab3b 6904 1c3d 15b6 543d
000001a0: e037 84bc c0ab 8b3d 3a5b c33b a89c 40bc
000001b0: 8a99 dfbc 64bd 8e3c f6b0 303d feb0 ed3c
000001c0: de8a 5f3c 5007 cfbc 59a3 643d 33fb 923d
000001d0: 24dc d7bc 08c0 8c3d c4fb 91bd 9563 b4bd
000001e0: 8d52 a93d 8272 dabc 2328 9fbd a92c b5bd
000001f0: 4a31 be3c 0021 a33d bc13 9d3d b57b 313d
00000200: 9add b0bd 2934 9bbd 34e5 08bc df6e ea3c
00000210: a950 b0bc cd12 4ebc 1999 2bbd db99 44bd
00000220: f724 853d 1d53 b63b 4728 113c e074 2a3d
00000230: 0c78 67bd f6ef 063d 13d3 cfbc 5af8 b6bd
00000240: d30e 18bd f121 143d 76c3 0fbd b657 3dbc
00000250: ab5c 0ebd a778 9b3c a718 a73d 21de 24bd
00000260: ad68 653d 6dea 6abc 2494 7ebd 61de ecbc
00000270: a156 a73c 4b11 413d dd82 8c3c 3004 1cbd
00000280: de86 29bc 3057 4abd 8a56 11bd 2d9a 873d
00000290: 2875 3c3d 995a 06bd 797c 8ebd e247 9b3d
000002a0: b774 88bd 2efb 9bbd b9e5 773d bd2a f5bb
000002b0: 91ec 31bd 1db8 86bd fe83 9ebd 6560 79bd
000002c0: 22ed 9dbd 06b9 8dbc c878 babd 63c0 53bd
000002d0: c844 1e3d b649 e63c 9270 a1bd 5b63 8abc
000002e0: 75a4 93bc 7039 0bbc 39d6 81bd d43b 613c
000002f0: 7bfc 3d3d ab00 4cbd 1e0f 93bd 01ba 4b3d
00000300: 1949 4f3d 0df1 a1bc 89d8 99bd 9145 8bbd
00000310: a510 f539 624f 5b3d 1a94 aebd df1b 8e3d
00000320: 65a8 09bd 61ea 993d a76c b4bd 9a0c 953d
00000330: f863 fa3b add6 a0bc aaaa 87bd 473c aa3d
00000340: 2d30 a8bd 909c 3cbb 1df2 1cbd f2ee 7abd
00000350: d398 ac3c 59de 38bd ed28 b93c df96 b83d
00000360: f7fb 6dbd 5cf5 873d a02d 9ebc 0b4b 083c
00000370: 24fd a63c f32c ae3d 9b27 b7bd 3b52 c1bc
00000380: bc74 9f3d fc71 eabc 43c1 a3bd 2c21 b03d
00000390: 023f 6abb 09ea 1bbd 6743 49bd 768d b3bd
000003a0: f6b5 9e3d 1d10 393d afb6 fcbc 7c9e 623d
000003b0: 4bdd 37bd f2f8 8b3d f980 bd3b b429 d3bb
000003c0: 67b5 b03d 33b7 463d dd2a 6bbd f6bf a0bd
000003d0: 581a 95b8 d9ae 8a3d bf66 af3c f89f 313a
000003e0: 9344 a3bd 0473 e3bc ccc5 a5bd 51d2 7d3c
000003f0: f3fc 543d 8dd4 923d b11c 67bd d902 073d
-0.0553135 -0.02156339 -0.089847706 0.08833157 0.045004874 -0.045595065 -0.004683798 0.03862409
0.085066035 -0.012288709 0.038571928 -0.033268914 -0.05061064 -0.05907743 -0.013467273 -0.0021432736
-0.08234273 0.06458228 -0.083071336 0.04274065 -0.010834986 0.0402572 0.0012758744 0.024206838
0.051226776 -0.070723504 0.045400005 -0.056491964 -0.050047826 0.08782417 0.046032373 0.038987186
0.04405389 0.064740516 0.02514088 0.0068201935 0.048852205 0.029395387 -0.017553326 0.06434737
0.083893344 0.037069548 0.06372286 -0.026656525 -0.06274194 0.05518568 -0.06495359 -0.05771212
-0.07959577 0.04106812 0.0944688 0.012685916 -0.032752737 0.026233602 -0.030207675 -0.063437164
-0.03649282 -0.0155505175 0.059245728 0.022574183 -0.03739982 0.08215504 -0.04389105 -0.04384246
-0.08569369 0.08789041 -0.06062114 -0.045210764 0.040777083 -0.07962441 0.00083665195 0.086277924
0.07640149 0.061395206 0.0547119 -0.068504214 0.07762677 0.026427833 -0.012079421 0.013192656
0.061723847 -0.0328918 -0.0060263234 0.018624645 -0.04293054 0.010394382 -0.0039142673 -0.023693996
0.05321501 -0.04743627 -0.026694704 -0.020580633 -0.07409461 0.023071937 -0.059299927 0.0825797
0.018623596 0.059000056 -0.08577071 0.04513922 0.027754767 0.0052317763 0.038090143 0.05193146
-0.016139925 0.06819868 0.005961803 -0.0117561 -0.027294893 0.017424293 0.043137513 0.02901506
0.013643948 -0.025272042 0.055819843 0.07176819 -0.026350088 0.068725646 -0.071280986 -0.08808056
0.082676984 -0.02666593 -0.07771327 -0.08846409 0.023216862 0.079652786 0.0766978 0.043330867
-0.08636017 -0.07578308 -0.0083554275 0.02861732 -0.021522837 -0.012577725 -0.041894052 -0.04799829
0.06501191 0.005564107 0.0088597005 0.041615367 -0.05651097 0.03294369 -0.025369203 -0.08934088
-0.037123512 0.03616518 -0.035098515 -0.011556556 -0.034756344 0.01897843 0.08158999 -0.0402509
0.05600803 -0.014338118 -0.062152997 -0.028914632 0.02042705 0.047135632 0.017152244 -0.03808993
-0.010347096 -0.049399555 -0.03548292 0.066212036 0.046010166 -0.032801244 -0.06957335 0.0758207
-0.066628866 -0.07616268 0.060521815 -0.0074819014 -0.043438498 -0.065780856 -0.07740019 -0.060882945
-0.07711245 -0.01730014 -0.091050684 -0.051697146 0.038639814 0.02811132 -0.07882799 -0.01689308
-0.018022755 -0.008497581 -0.06339688 0.013747174 0.046383362 -0.049805325 -0.07180618 0.049737934
0.05060682 -0.019768262 -0.07512004 -0.06800378 0.00046742443 0.053542502 -0.08524342 0.0693891
-0.03360786 0.07515407 -0.08809786 0.07277794 0.0076413117 -0.019633615 -0.066243485 0.08312278
-0.08212314 -0.0028779842 -0.038316835 -0.061263032 0.021068966 -0.045133922 0.022602523 0.090131514
-0.05810162 0.066385955 -0.019308865 0.008318673 0.020384379 0.08504667 -0.08943101 -0.02359878
0.07785937 -0.028618805 -0.07995846 0.08600077 -0.0035743122 -0.03806499 -0.049136546 -0.08767216
0.0774955 0.045181382 -0.03084883 0.055326924 -0.044888776 0.06834592 0.005783197 -0.0064441804
0.0862835 0.048514556 -0.057413924 -0.07849114 -7.1097806e-05 0.06771631 0.021411298 0.00067758514
-0.07972064 -0.027764805 -0.080943674 0.015492038 0.051999044 0.07169447 -0.056423847 0.0329617

fc2.0.bias f4 [84]
00000000: 4f7b a5bd 5d00 803b a8c4 2f3d a371 8a3d
00000010: 442a 403d 5b2c 87bd 1c1d 263d a8d7 5c3d
00000020: d971 013c 470a 0b3d 738c b43d 7992 73bd
00000030: 1720 02bd 5e70 4cbd ea6f b53d ab24 8dbd
00000040: 7e1b d93a 5cf8 95bd d7db a7bd 2390 ac3d
00000050: 4782 723b 03d3 6c3d 6dd2 20bd b05a 05bd
00000060: 0795 893d b4cb 993c 8ba9 153a c544 a0bc
00000070: d7ce aebc d06f d4b9 2a05 8b3d 3eb3 94bd
00000080: 1849 a4bc 63e7 49bc 7899 b0bd f1b3 193d
00000090: 877c 463d dc2a 61bc cb25 9f3d 9a16 b3bd
000000a0: 1401 dd3b 5b6e babc 4b51 1e3d 1384 12bd
000000b0: 382c 563d eb47 a8bd 1655 9abb c971 8b3d
000000c0: e145 3bbb 60c7 87bd dbc0 b8bb 94ea b13d
000000d0: 421c 9abd 5abf 0cbd a01b b63d 1239 6b3d
000000e0: 372c 223d 5843 7ebc f29f a8bb 9ce4 283d
000000f0: ced4 8b3d 9b17 26bd d4a3 a8bd 27f9 cebc
00000100: 597b 53bd fd95 b63d de6e ec3b 41ac 5a3d
00000110: 9329 63bd 28ba 763d d946 70bd f991 b7bd
00000120: 8f74 a7bd 8a76 823c a3fa b4bd ab26 a63d
00000130: 176c 32bc 42d2 903d 78ba 54bc 1d37 af3d
00000140: 7f4e 10bd 7c32 babd 0ad2 afbd 055c b43a
-0.0808016 0.0039062933 0.042912155 0.06759956 0.046915308 -0.06600257 0.040555105 0.053916603
0.007900679 0.033945348 0.08815851 -0.05946586 -0.031768885 -0.04991185 0.088592365 -0.068917595
0.001656398 -0.073227614 -0.08196228 0.084259294 0.003700392 0.057818424 -0.039263178 -0.03255719
0.06717878 0.018773891 0.0005709163 -0.019564042 -0.021338863 -0.00040519098 0.06788094 -0.0726075
-0.020054385 -0.012323233 -0.08623022 0.03752512 0.048458602 -0.013743129 0.0777088 -0.08744545
0.0067445133 -0.0227577 0.038651746 -0.035770487 0.052288264 -0.08216842 -0.00470985 0.06808812
-0.0028575587 -0.06629825 -0.0056382245 0.0868732 -0.07524921 -0.034362175 0.08891988 0.057427473
0.039592948 -0.015518986 -0.00514602 0.041233644 0.06827699 -0.040549856 -0.08234373 -0.02526529
-0.051631305 0.08915327 0.007215365 0.05338693 -0.05545957 0.060236126 -0.058661316 -0.08963389
-0.08176529 0.015925664 -0.08836868 0.08112844 -0.010890028 0.070713535 -0.012983911 0.08555434
-0.03523111 -0.090916604 -0.08584984 0.0013760334

fc3.0.weight f4 [10, 84]
00000000: 77eb b2bd 1b8d 973d 6fd5 d0bc a528 75bd
00000010: cc45 c7bd 38f8 8cbd 0a55 583d 94d1 febc
00000020: a1f0 ad3d 73d3 de3d cf22 adbc 1f8d 963c
00000030: 536d 2f3d afb0 b13d 1c80 22bd 726d 87bb
00000040: cae2 833c 790e b7bd fb35 cf3d be4e 563d
00000050: 4780 853c a771 b9bd 5c25 d83d 9289 d9bc
00000060: fdd6 17bd bf7e 63bc 59e0 333d 1e88 4f3d
00000070: 6846 ce3d f679 983d 07a6 30bd b378 98bd
00000080: ea26 86bd 4431 5f3d 509a 7c3a 66ac 573d
00000090: 78ac b1bb 1eea 82ba cbd7 5d3b b43b a63d
000000a0: 9592 89bd 55f5 983d edc5 77bd fb0b 5fbc
000000b0: 3aad 8b3d 9ad4 c0bd e81e 22bd 7902 d6bd
000000c0: 51ca 633b 3756 8e3b 6abd 11bd ab39 8a3d
000000d0: b5ff a23c 71dd d5bd 94d6 18bd e75d 9ebc
000000e0: 0318 adbd 750d e53d 1762 d43d 0d15 7d3d
000000f0: b0b1 7d3c 34f5 48bd 3e6a 983d ba74 0b3d
00000100: 1685 d4bc ce34 3ebc 27af 0e3d b86a d23d
00000110: 182e a03d 2042 843d 99eb 25bc 2cce 853c
00000120: 04c5 8b3d 7605 2ebd 75cc eabd 0a0f e93c
00000130: c2fc 9fbc 2282 c3bc 7a33 303d a9ac 1bbd
00000140: 7c07 25bb d10f b8bd b22f c7bc 409d 5b3d
00000150: 16a0 b83d f0ab 97bc 1066 f8bb e81d a9bd
00000160: 69f7 c33d a9b2 e4bc ab68 b13d 7ab6 773d
00000170: c9f7 cf3c 8be2 5b3d 1239 b43d d35c 20bd
00000180: c3d4 6fbc 1148 4a3c 27b9 da3d 4c72 d1bd
00000190: 89ca 7ebc a845 853d 1104 883d fd1a 233d
000001a0: bcad b3bd 43cb 8e3d 3165 233c 0a0a b0bd
000001b0: a0c7 2bbd 6565 0f3d 90e2 d6bc 0a8e 80bd
000001c0: 8883 7ebc 323d b03d 8b83 b03d 4296 97bd
000001d0: 3019 ad3d ffa9 4e3d 9a59 8c3d b6aa 87bc
000001e0: 6b1d c8bd df0e 803d f502 93bd 8f55 4fbd
000001f0: 6d3d 203d 3fab 963d d46b 3cbd 4954 413c
00000200: 8712 65bd c60a e1bd e9b3 c13d fca0 b1bd
00000210: 302a e1bc 5fbc cdbd 3319 5a3d b153 b43d
00000220: 4e16 ec3c 844d 503d 94b9 cf3c 6ee3 a23c
00000230: 83f2 b1bd fdcd f83c 23a4 aa3c 5bbb 9a3d
00000240: 48f6 d4bc eaa2 7abd cffd 553d 19d0 5abd
00000250: 506a a83d f6b4 c7bc c456 abbd 3d75 acbd
00000260: be3c b13c 5235 cdbd a9a0 753d 9bca 5e3d
00000270: 4ec1 9bbd 442b 9c3d 8964 023d e9c9 b23b
00000280: 6465 e9bc 2e0a abbc 5a27 9c3d 40f9 26bc
00000290: 6a67 86bd c520 06bd 402a d03b dfd7 14bd
000002a0: ff39 e63d 4388 38bd c3d3 b6bd eeec cf3d
000002b0: 8f88 e3bc fefe 803d bf3a 4c3d 9415 483c
000002c0: 5b9b 1d3d 31e3 bb3d 2c64 96bd 091e b2bd
000002d0: abe5 20bd 624d 673d 4c61 853d f053 a33c
000002e0: 2778 07bd e1a2 1e3d 0196 4abc 7d93 ab3c
000002f0: 91cb 0fbd e7b6 e3bc 9995 c83d e834 e23c
00000300: 1e58 5ebd bb4b 61bd f8f1 63bd 381a a2bd
00000310: 5aa9 a8bd 1bc1 c33b 7968 b33d e262 83bc
00000320: 0fd6 2bbd 1cfe 11bd c7f5 edbc a0d1 28bc
00000330: 11eb 943d 90ac 4abc c0c1 9bbd 53f5 493d
00000340: 8b8f 9bbd 9b45 34bd 563c 90bc c92d a03c
00000350: 3020 ee3b 4a81 75bd 9bcc 94bd 6b98 093d
00000360: 0fb5 07bc efa9 f4bc 0ce8 8e3c 2516 aa3d
00000370: 774b 883d 86dd 2c3c 2a62 cfbd d322 94bd
00000380: a1d5 b7bd 8f34 6bbd 2817 28bd 58e2 9d3d
00000390: a0fd acbd a7b2 f53b ec5e 0cbd a850 a0bd
000003a0: 37c9 c23d 9b6c d93d 9645 aabd 9a7f 28bd
000003b0: 4841 7c3d 8d55 803d 9ff1 843c 223c a6bd
000003c0: 8915 b2bc d6c6 a4bd 7185 b33d 88f6 ebbc
000003d0: 7bc0 983c fa08 aa3d 6566 9dbd f8a2 893c
000003e0: 66f6 bd3d 5c24 973c f84f c7bc 4557 a6bd
000003f0: 9bfb d0bd 2c0f f93b 0a71 bf3d 9a3a b7bc
-0.087363176 0.073999606 -0.025492398 -0.059853215 -0.097301096 -0.068832815 0.052815475 -0.031105794
0.08493162 0.108801745 -0.021134762 0.018377839 0.04282887 0.08676278 -0.039672956 -0.00413292
0.016099352 -0.08938307 0.10117718 0.05232119 0.016296519 -0.090548806 0.10554001 -0.026554856
-0.037070263 -0.013885199 0.043915126 0.05066692 0.10072023 0.07445137 -0.043127086 -0.074448965
-0.06550391 0.054490343 0.00096360315 0.052654646 -0.005422171 -0.0009987985 0.0033850546 0.08116856
-0.067174114 0.07468668 -0.06049149 -0.013613696 0.0682015 -0.094155505 -0.039580256 -0.1044969
0.003475804 0.0043437737 -0.03558103 0.067492805 0.019897321 -0.10442627 -0.037314013 -0.019331886
-0.084518455 0.11184207 0.10370272 0.061787654 0.0154842585 -0.04906197 0.07442139 0.034046866
-0.025942367 -0.011609269 0.034835007 0.10274261 0.07821292 0.06457925 -0.010126972 0.016333662
0.06824687 -0.042485677 -0.11464778 0.028449554 -0.019529704 -0.023865763 0.043017842 -0.03800646
-0.0025181463 -0.08987392 -0.024314735 0.053616762 0.09014909 -0.018514603 -0.007580526 -0.08257657
0.09568674 -0.027917223 0.08662542 0.060476758 0.025386708 0.053682845 0.08799948 -0.039151024
-0.014638129 0.0123462835 0.10679846 -0.102268785 -0.015551218 0.065074265 0.066414006 0.03982066
-0.087733716 0.06972363 0.009972856 -0.08595665 -0.041938424 0.035008807 -0.02623108 -0.06277092
-0.015534289 0.08605422 0.0861884 -0.07401706 0.0845207 0.05045509 0.06853028 -0.016560894
-0.09771236 0.062528364 -0.071782984 -0.050618704 0.03912108 0.07356881 -0.04600127 0.01179988
-0.055925872 -0.10988383 0.09458143 -0.086732835 -0.027485937 -0.100456946 0.053246688 0.08805025
0.02881923 0.050855175 0.025357045 0.019883838 -0.086888336 0.03037166 0.02083022 0.075552665
-0.025996342 -0.061190523 0.052244004 -0.053421114 0.082234025 -0.024378281 -0.083661586 -0.08420799
0.02163541 -0.10019936 0.05996767 0.05439244 -0.07605229 0.0762544 0.03183416 0.0054561985
-0.02849073 -0.020878877 0.07624693 -0.010191262 -0.065626934 -0.032746095 0.006352693 -0.036338683
0.112415306 -0.045051824 -0.08927109 0.101526126 -0.027775077 0.06298636 0.049860712 0.012212176
0.038478237 0.09174193 -0.07343325 -0.08697135 -0.03928153 0.056470282 0.065126985 0.019937485
-0.03307357 0.038729552 -0.012364865 0.020944351 -0.035106245 -0.027797176 0.097941585 0.027613118
-0.054283254 -0.055003863 -0.05565068 -0.07915157 -0.08235426 0.0059739477 0.08760161 -0.016038362
-0.04195219 -0.03564273 -0.02904786 -0.010303885 0.07271398 -0.012370244 -0.07605314 0.049306225
-0.07595738 -0.044011693 -0.017606895 0.019553082 0.0072670206 -0.059937753 -0.07265588 0.033592623
-0.008282914 -0.029866187 0.017444633 0.08305005 0.06655019 0.010550862 -0.10126145 -0.07233205
-0.08976293 -0.05742317 -0.04103771 0.07709187 -0.08446813 0.0074981037 -0.034270212 -0.07827884
0.09511035 0.10616418 -0.08314054 -0.041137315 0.061585695 0.062663175 0.016228495 -0.08116938
-0.021738784 -0.080457374 0.08765686 -0.028804079 0.01864647 0.083024934 -0.07685546 0.016801342
0.092755124 0.018449955 -0.024330124 -0.08122114 -0.1020424 0.0076006856 0.09347732 -0.02236681

fc3.0.bias f4 [10]
00000000: c05e babd e3e1 bc3c cc93 533d 2ffc c5bc
00000010: c65b 9cbd f239 a03d 3745 31bd e54f bf3c
00000020: 0466 8fbd 5ec2 c0bd
-0.091001034 0.02305693 0.051654622 -0.024168102 -0.07634692 0.07823552 -0.0432789 0.023353526
-0.0700188 -0.094120726
